…
[2023-05-27 16:11:26] INFO (recstudio/MainThread) GPU id [0] are selected.
[2023-05-27 16:11:26] WARNING No retriever is used, topk metrics is not supported.
[2023-05-27 16:11:26] WARNING (recstudio/MainThread) No retriever is used, topk metrics is not supported.
[2023-05-27 16:11:28] INFO save_dir:./saved/
[2023-05-27 16:11:28] INFO (recstudio/MainThread) save_dir:./saved/
[2023-05-27 16:11:28] INFO AutoInt(
  (loss_fn): BCEWithLogitLoss()
  (feature_selection_layer): Lasso()
  (embedding): Embeddings(
    num_features=8, embed_dim=16, reduction=mean, share_dense_embedding=True
    (embeddings): ModuleDict(
      (business_name): Embedding(83408, 16, padding_idx=0)
      (city): Embedding(1181, 16, padding_idx=0)
      (user_name): Embedding(31148, 16, padding_idx=0)
      (categories): Embedding(103732, 16, padding_idx=0)
      (postal_code): Embedding(2853, 16, padding_idx=0)
      (review_id): Embedding(4250484, 16, padding_idx=0)
      (user_id): Embedding(277632, 16, padding_idx=0)
      (business_id): Embedding(112395, 16, padding_idx=0)
    )
    (seq_pooling_layer): SeqPoolingLayer(pooling_type=mean, keepdim=False)
  )
  (linear): LinearLayer(
    bias=True
    (embeddings): ModuleDict(
      (business_name): Embedding(83408, 1, padding_idx=0)
      (city): Embedding(1181, 1, padding_idx=0)
      (user_name): Embedding(31148, 1, padding_idx=0)
      (categories): Embedding(103732, 1, padding_idx=0)
      (postal_code): Embedding(2853, 1, padding_idx=0)
      (review_id): Embedding(4250484, 1, padding_idx=0)
      (user_id): Embedding(277632, 1, padding_idx=0)
      (business_id): Embedding(112395, 1, padding_idx=0)
    )
    (seq_pooling_layer): SeqPoolingLayer(pooling_type=mean, keepdim=False)
  )
  (mlp): MLPModule(
    (model): Sequential(
      (0): Dropout(p=0.3, inplace=False)
      (1): Linear(in_features=128, out_features=64, bias=True)
      (2): ReLU()
      (3): Dropout(p=0.3, inplace=False)
      (4): Linear(in_features=64, out_features=64, bias=True)
      (5): ReLU()
      (6): Dropout(p=0.3, inplace=False)
      (7): Linear(in_features=64, out_features=64, bias=True)
      (8): ReLU()
      (9): Dropout(p=0.3, inplace=False)
      (10): Linear(in_features=64, out_features=1, bias=True)
    )
  )
  (int): Sequential(
    (0): SelfAttentionInteractingLayer(
      attention_dim=16, n_head=16, dropout=0.3, residual=True, layer_norm=True
      (attn): AttentionLayer(
        (attn_layer): MultiheadAttention(
          (out_proj): NonDynamicallyQuantizableLinear(in_features=16, out_features=16, bias=True)
        )
      )
      (res): Linear(in_features=16, out_features=16, bias=True)
      (ln): LayerNorm((16,), eps=1e-05, elementwise_affine=True)
    )
    (1): SelfAttentionInteractingLayer(
      attention_dim=16, n_head=16, dropout=0.3, residual=True, layer_norm=True
      (attn): AttentionLayer(
        (attn_layer): MultiheadAttention(
          (out_proj): NonDynamicallyQuantizableLinear(in_features=16, out_features=16, bias=True)
        )
      )
      (res): Linear(in_features=16, out_features=16, bias=True)
      (ln): LayerNorm((16,), eps=1e-05, elementwise_affine=True)
    )
    (2): SelfAttentionInteractingLayer(
      attention_dim=16, n_head=16, dropout=0.3, residual=True, layer_norm=True
      (attn): AttentionLayer(
        (attn_layer): MultiheadAttention(
          (out_proj): NonDynamicallyQuantizableLinear(in_features=16, out_features=16, bias=True)
        )
      )
      (res): Linear(in_features=16, out_features=16, bias=True)
      (ln): LayerNorm((16,), eps=1e-05, elementwise_affine=True)
    )
    (3): SelfAttentionInteractingLayer(
      attention_dim=16, n_head=16, dropout=0.3, residual=True, layer_norm=True
      (attn): AttentionLayer(
        (attn_layer): MultiheadAttention(
          (out_proj): NonDynamicallyQuantizableLinear(in_features=16, out_features=16, bias=True)
        )
      )
      (res): Linear(in_features=16, out_features=16, bias=True)
      (ln): LayerNorm((16,), eps=1e-05, elementwise_affine=True)
    )
    (4): SelfAttentionInteractingLayer(
      attention_dim=16, n_head=16, dropout=0.3, residual=True, layer_norm=True
      (attn): AttentionLayer(
        (attn_layer): MultiheadAttention(
          (out_proj): NonDynamicallyQuantizableLinear(in_features=16, out_features=16, bias=True)
        )
      )
      (res): Linear(in_features=16, out_features=16, bias=True)
      (ln): LayerNorm((16,), eps=1e-05, elementwise_affine=True)
    )
  )
  (fc): Linear(in_features=128, out_features=1, bias=True)
)
[2023-05-27 16:11:28] INFO (recstudio/MainThread) AutoInt(
  (loss_fn): BCEWithLogitLoss()
  (feature_selection_layer): Lasso()
  (embedding): Embeddings(
    num_features=8, embed_dim=16, reduction=mean, share_dense_embedding=True
    (embeddings): ModuleDict(
      (business_name): Embedding(83408, 16, padding_idx=0)
      (city): Embedding(1181, 16, padding_idx=0)
      (user_name): Embedding(31148, 16, padding_idx=0)
      (categories): Embedding(103732, 16, padding_idx=0)
      (postal_code): Embedding(2853, 16, padding_idx=0)
      (review_id): Embedding(4250484, 16, padding_idx=0)
      (user_id): Embedding(277632, 16, padding_idx=0)
      (business_id): Embedding(112395, 16, padding_idx=0)
    )
    (seq_pooling_layer): SeqPoolingLayer(pooling_type=mean, keepdim=False)
  )
  (linear): LinearLayer(
    bias=True
    (embeddings): ModuleDict(
      (business_name): Embedding(83408, 1, padding_idx=0)
      (city): Embedding(1181, 1, padding_idx=0)
      (user_name): Embedding(31148, 1, padding_idx=0)
      (categories): Embedding(103732, 1, padding_idx=0)
      (postal_code): Embedding(2853, 1, padding_idx=0)
      (review_id): Embedding(4250484, 1, padding_idx=0)
      (user_id): Embedding(277632, 1, padding_idx=0)
      (business_id): Embedding(112395, 1, padding_idx=0)
    )
    (seq_pooling_layer): SeqPoolingLayer(pooling_type=mean, keepdim=False)
  )
  (mlp): MLPModule(
    (model): Sequential(
      (0): Dropout(p=0.3, inplace=False)
      (1): Linear(in_features=128, out_features=64, bias=True)
      (2): ReLU()
      (3): Dropout(p=0.3, inplace=False)
      (4): Linear(in_features=64, out_features=64, bias=True)
      (5): ReLU()
      (6): Dropout(p=0.3, inplace=False)
      (7): Linear(in_features=64, out_features=64, bias=True)
      (8): ReLU()
      (9): Dropout(p=0.3, inplace=False)
      (10): Linear(in_features=64, out_features=1, bias=True)
    )
  )
  (int): Sequential(
    (0): SelfAttentionInteractingLayer(
      attention_dim=16, n_head=16, dropout=0.3, residual=True, layer_norm=True
      (attn): AttentionLayer(
        (attn_layer): MultiheadAttention(
          (out_proj): NonDynamicallyQuantizableLinear(in_features=16, out_features=16, bias=True)
        )
      )
      (res): Linear(in_features=16, out_features=16, bias=True)
      (ln): LayerNorm((16,), eps=1e-05, elementwise_affine=True)
    )
    (1): SelfAttentionInteractingLayer(
      attention_dim=16, n_head=16, dropout=0.3, residual=True, layer_norm=True
      (attn): AttentionLayer(
        (attn_layer): MultiheadAttention(
          (out_proj): NonDynamicallyQuantizableLinear(in_features=16, out_features=16, bias=True)
        )
      )
      (res): Linear(in_features=16, out_features=16, bias=True)
      (ln): LayerNorm((16,), eps=1e-05, elementwise_affine=True)
    )
    (2): SelfAttentionInteractingLayer(
      attention_dim=16, n_head=16, dropout=0.3, residual=True, layer_norm=True
      (attn): AttentionLayer(
        (attn_layer): MultiheadAttention(
          (out_proj): NonDynamicallyQuantizableLinear(in_features=16, out_features=16, bias=True)
        )
      )
      (res): Linear(in_features=16, out_features=16, bias=True)
      (ln): LayerNorm((16,), eps=1e-05, elementwise_affine=True)
    )
    (3): SelfAttentionInteractingLayer(
      attention_dim=16, n_head=16, dropout=0.3, residual=True, layer_norm=True
      (attn): AttentionLayer(
        (attn_layer): MultiheadAttention(
          (out_proj): NonDynamicallyQuantizableLinear(in_features=16, out_features=16, bias=True)
        )
      )
      (res): Linear(in_features=16, out_features=16, bias=True)
      (ln): LayerNorm((16,), eps=1e-05, elementwise_affine=True)
    )
    (4): SelfAttentionInteractingLayer(
      attention_dim=16, n_head=16, dropout=0.3, residual=True, layer_norm=True
      (attn): AttentionLayer(
        (attn_layer): MultiheadAttention(
          (out_proj): NonDynamicallyQuantizableLinear(in_features=16, out_features=16, bias=True)
        )
      )
      (res): Linear(in_features=16, out_features=16, bias=True)
      (ln): LayerNorm((16,), eps=1e-05, elementwise_affine=True)
    )
  )
  (fc): Linear(in_features=128, out_features=1, bias=True)
)
[2023-05-27 16:11:28] INFO GPU id [0] are selected.
[2023-05-27 16:11:28] INFO (recstudio/MainThread) GPU id [0] are selected.
[2023-05-27 16:14:56] INFO Training: Epoch=  0 [logloss=0.3878 auc=0.7963 train_loss_0=0.3973]
[2023-05-27 16:14:56] INFO (recstudio/MainThread) Training: Epoch=  0 [logloss=0.3878 auc=0.7963 train_loss_0=0.3973]
[2023-05-27 16:14:56] INFO Train time: 181.79630s. Valid time: 18.73254s. GPU RAM: 1.79/9.77 GB
…
