…
[2023-05-27 19:26:20] INFO GPU id [0] are selected.
[2023-05-27 19:26:20] INFO (recstudio/MainThread) GPU id [0] are selected.
[2023-05-27 19:26:20] WARNING No retriever is used, topk metrics is not supported.
[2023-05-27 19:26:20] WARNING (recstudio/MainThread) No retriever is used, topk metrics is not supported.
[2023-05-27 19:26:20] INFO save_dir:./saved/
[2023-05-27 19:26:20] INFO (recstudio/MainThread) save_dir:./saved/
[2023-05-27 19:26:20] INFO DeepFM(
  (loss_fn): BCEWithLogitLoss()
  (feature_selection_layer): GBDT()
  (linear): LinearLayer(
    bias=True
    (embeddings): ModuleDict(
      (state): Embedding(18, 1, padding_idx=0)
      (business_name): Embedding(83408, 1, padding_idx=0)
      (categories): Embedding(103732, 1, padding_idx=0)
      (user_name): Embedding(31148, 1, padding_idx=0)
      (business_id): Embedding(112395, 1, padding_idx=0)
      (user_id): Embedding(277632, 1, padding_idx=0)
      (city): Embedding(1181, 1, padding_idx=0)
      (date): DenseEmbedding(
        embedding_dim=1, bias=False, batch_norm=True
        (batch_norm_layer): BatchNorm1d(1, eps=1e-05, momentum=0.1, affine=True, track_running_stats=True)
        (weight): Linear(in_features=1, out_features=1, bias=False)
      )
    )
    (seq_pooling_layer): SeqPoolingLayer(pooling_type=mean, keepdim=False)
  )
  (fm): FMLayer(reduction=sum)
  (embedding): Embeddings(
    num_features=8, embed_dim=16, reduction=mean, share_dense_embedding=True
    (embeddings): ModuleDict(
      (state): Embedding(18, 16, padding_idx=0)
      (business_name): Embedding(83408, 16, padding_idx=0)
      (categories): Embedding(103732, 16, padding_idx=0)
      (user_name): Embedding(31148, 16, padding_idx=0)
      (business_id): Embedding(112395, 16, padding_idx=0)
      (user_id): Embedding(277632, 16, padding_idx=0)
      (city): Embedding(1181, 16, padding_idx=0)
      (date): DenseEmbedding(
        embedding_dim=16, bias=False, batch_norm=True
        (batch_norm_layer): BatchNorm1d(1, eps=1e-05, momentum=0.1, affine=True, track_running_stats=True)
        (weight): Linear(in_features=1, out_features=16, bias=False)
      )
    )
    (seq_pooling_layer): SeqPoolingLayer(pooling_type=mean, keepdim=False)
  )
  (mlp): MLPModule(
    (model): Sequential(
      (0): Dropout(p=0.2, inplace=False)
      (1): Linear(in_features=128, out_features=64, bias=True)
      (2): ReLU()
      (3): Dropout(p=0.2, inplace=False)
      (4): Linear(in_features=64, out_features=64, bias=True)
      (5): ReLU()
      (6): Dropout(p=0.2, inplace=False)
      (7): Linear(in_features=64, out_features=64, bias=True)
      (8): ReLU()
      (9): Dropout(p=0.2, inplace=False)
      (10): Linear(in_features=64, out_features=1, bias=True)
    )
  )
)
[2023-05-27 19:26:20] INFO (recstudio/MainThread) DeepFM(
  (loss_fn): BCEWithLogitLoss()
  (feature_selection_layer): GBDT()
  (linear): LinearLayer(
    bias=True
    (embeddings): ModuleDict(
      (state): Embedding(18, 1, padding_idx=0)
      (business_name): Embedding(83408, 1, padding_idx=0)
      (categories): Embedding(103732, 1, padding_idx=0)
      (user_name): Embedding(31148, 1, padding_idx=0)
      (business_id): Embedding(112395, 1, padding_idx=0)
      (user_id): Embedding(277632, 1, padding_idx=0)
      (city): Embedding(1181, 1, padding_idx=0)
      (date): DenseEmbedding(
        embedding_dim=1, bias=False, batch_norm=True
        (batch_norm_layer): BatchNorm1d(1, eps=1e-05, momentum=0.1, affine=True, track_running_stats=True)
        (weight): Linear(in_features=1, out_features=1, bias=False)
      )
    )
    (seq_pooling_layer): SeqPoolingLayer(pooling_type=mean, keepdim=False)
  )
  (fm): FMLayer(reduction=sum)
  (embedding): Embeddings(
    num_features=8, embed_dim=16, reduction=mean, share_dense_embedding=True
    (embeddings): ModuleDict(
      (state): Embedding(18, 16, padding_idx=0)
      (business_name): Embedding(83408, 16, padding_idx=0)
      (categories): Embedding(103732, 16, padding_idx=0)
      (user_name): Embedding(31148, 16, padding_idx=0)
      (business_id): Embedding(112395, 16, padding_idx=0)
      (user_id): Embedding(277632, 16, padding_idx=0)
      (city): Embedding(1181, 16, padding_idx=0)
      (date): DenseEmbedding(
        embedding_dim=16, bias=False, batch_norm=True
        (batch_norm_layer): BatchNorm1d(1, eps=1e-05, momentum=0.1, affine=True, track_running_stats=True)
        (weight): Linear(in_features=1, out_features=16, bias=False)
      )
    )
    (seq_pooling_layer): SeqPoolingLayer(pooling_type=mean, keepdim=False)
  )
  (mlp): MLPModule(
    (model): Sequential(
      (0): Dropout(p=0.2, inplace=False)
      (1): Linear(in_features=128, out_features=64, bias=True)
      (2): ReLU()
      (3): Dropout(p=0.2, inplace=False)
      (4): Linear(in_features=64, out_features=64, bias=True)
      (5): ReLU()
      (6): Dropout(p=0.2, inplace=False)
      (7): Linear(in_features=64, out_features=64, bias=True)
      (8): ReLU()
      (9): Dropout(p=0.2, inplace=False)
      (10): Linear(in_features=64, out_features=1, bias=True)
    )
  )
)
[2023-05-27 19:26:20] INFO GPU id [0] are selected.
[2023-05-27 19:26:20] INFO (recstudio/MainThread) GPU id [0] are selected.
[2023-05-27 19:27:35] INFO Training: Epoch=  0 [logloss=0.3867 auc=0.7984 train_loss_0=0.4073]
[2023-05-27 19:27:35] INFO (recstudio/MainThread) Training: Epoch=  0 [logloss=0.3867 auc=0.7984 train_loss_0=0.4073]
[2023-05-27 19:27:35] INFO Train time: 57.77383s. Valid time: 11.01498s. GPU RAM: 0.24/9.77 GB
…
