…
        (city): Parameter containing: [torch.cuda.FloatTensor of size 1x2 (GPU 0)]
        (postal_code): Parameter containing: [torch.cuda.FloatTensor of size 1x2 (GPU 0)]
        (review_id): Parameter containing: [torch.cuda.FloatTensor of size 1x2 (GPU 0)]
        (state): Parameter containing: [torch.cuda.FloatTensor of size 1x2 (GPU 0)]
        (user_id): Parameter containing: [torch.cuda.FloatTensor of size 1x2 (GPU 0)]
        (user_name): Parameter containing: [torch.cuda.FloatTensor of size 1x2 (GPU 0)]
    )
  )
  (linear): LinearLayer(
    bias=True
    (embeddings): ModuleDict(
      (user_id): Embedding(277632, 1, padding_idx=0)
      (review_id): Embedding(4250484, 1, padding_idx=0)
      (user_name): Embedding(31148, 1, padding_idx=0)
      (postal_code): Embedding(2853, 1, padding_idx=0)
      (categories): Embedding(103732, 1, padding_idx=0)
      (state): Embedding(18, 1, padding_idx=0)
      (business_name): Embedding(83408, 1, padding_idx=0)
      (city): Embedding(1181, 1, padding_idx=0)
      (business_id): Embedding(112395, 1, padding_idx=0)
      (date): DenseEmbedding(
        embedding_dim=1, bias=False, batch_norm=True
        (batch_norm_layer): BatchNorm1d(1, eps=1e-05, momentum=0.1, affine=True, track_running_stats=True)
        (weight): Linear(in_features=1, out_features=1, bias=False)
      )
    )
    (seq_pooling_layer): SeqPoolingLayer(pooling_type=mean, keepdim=False)
  )
  (embedding): Embeddings(
    num_features=10, embed_dim=16, reduction=mean, share_dense_embedding=True
    (embeddings): ModuleDict(
      (user_id): Embedding(277632, 16, padding_idx=0)
      (review_id): Embedding(4250484, 16, padding_idx=0)
      (user_name): Embedding(31148, 16, padding_idx=0)
      (postal_code): Embedding(2853, 16, padding_idx=0)
      (categories): Embedding(103732, 16, padding_idx=0)
      (state): Embedding(18, 16, padding_idx=0)
      (business_name): Embedding(83408, 16, padding_idx=0)
      (city): Embedding(1181, 16, padding_idx=0)
      (business_id): Embedding(112395, 16, padding_idx=0)
      (date): DenseEmbedding(
        embedding_dim=16, bias=False, batch_norm=True
        (batch_norm_layer): BatchNorm1d(1, eps=1e-05, momentum=0.1, affine=True, track_running_stats=True)
        (weight): Linear(in_features=1, out_features=16, bias=False)
      )
    )
    (seq_pooling_layer): SeqPoolingLayer(pooling_type=mean, keepdim=False)
  )
  (fm_layer): FMLayer(reduction=sum)
)
[2023-05-27 14:50:41] INFO (recstudio/MainThread) FM(
  (loss_fn): BCEWithLogitLoss()
  (feature_selection_layer): AutoField(
    (gate): ParameterDict(
        (business_id): Parameter containing: [torch.cuda.FloatTensor of size 1x2 (GPU 0)]
…
