…
[2023-05-27 19:00:24] INFO GPU id [0] are selected.
[2023-05-27 19:00:24] INFO (recstudio/MainThread) GPU id [0] are selected.
[2023-05-27 19:00:24] WARNING No retriever is used, topk metrics is not supported.
[2023-05-27 19:00:24] WARNING (recstudio/MainThread) No retriever is used, topk metrics is not supported.
[2023-05-27 19:00:24] INFO save_dir:./saved/
[2023-05-27 19:00:24] INFO (recstudio/MainThread) save_dir:./saved/
[2023-05-27 19:00:24] INFO FM(
  (loss_fn): BCEWithLogitLoss()
  (feature_selection_layer): GBDT()
  (linear): LinearLayer(
    bias=True
    (embeddings): ModuleDict(
      (user_id): Embedding(277632, 1, padding_idx=0)
      (business_id): Embedding(112395, 1, padding_idx=0)
      (categories): Embedding(103732, 1, padding_idx=0)
      (user_name): Embedding(31148, 1, padding_idx=0)
      (business_name): Embedding(83408, 1, padding_idx=0)
      (state): Embedding(18, 1, padding_idx=0)
      (city): Embedding(1181, 1, padding_idx=0)
      (date): DenseEmbedding(
        embedding_dim=1, bias=False, batch_norm=True
        (batch_norm_layer): BatchNorm1d(1, eps=1e-05, momentum=0.1, affine=True, track_running_stats=True)
        (weight): Linear(in_features=1, out_features=1, bias=False)
      )
    )
    (seq_pooling_layer): SeqPoolingLayer(pooling_type=mean, keepdim=False)
  )
  (embedding): Embeddings(
    num_features=8, embed_dim=16, reduction=mean, share_dense_embedding=True
    (embeddings): ModuleDict(
      (user_id): Embedding(277632, 16, padding_idx=0)
      (business_id): Embedding(112395, 16, padding_idx=0)
      (categories): Embedding(103732, 16, padding_idx=0)
      (user_name): Embedding(31148, 16, padding_idx=0)
      (business_name): Embedding(83408, 16, padding_idx=0)
      (state): Embedding(18, 16, padding_idx=0)
      (city): Embedding(1181, 16, padding_idx=0)
      (date): DenseEmbedding(
        embedding_dim=16, bias=False, batch_norm=True
        (batch_norm_layer): BatchNorm1d(1, eps=1e-05, momentum=0.1, affine=True, track_running_stats=True)
        (weight): Linear(in_features=1, out_features=16, bias=False)
      )
    )
    (seq_pooling_layer): SeqPoolingLayer(pooling_type=mean, keepdim=False)
  )
  (fm_layer): FMLayer(reduction=sum)
)
[2023-05-27 19:00:24] INFO (recstudio/MainThread) FM(
  (loss_fn): BCEWithLogitLoss()
  (feature_selection_layer): GBDT()
  (linear): LinearLayer(
    bias=True
    (embeddings): ModuleDict(
      (user_id): Embedding(277632, 1, padding_idx=0)
      (business_id): Embedding(112395, 1, padding_idx=0)
      (categories): Embedding(103732, 1, padding_idx=0)
      (user_name): Embedding(31148, 1, padding_idx=0)
      (business_name): Embedding(83408, 1, padding_idx=0)
      (state): Embedding(18, 1, padding_idx=0)
      (city): Embedding(1181, 1, padding_idx=0)
      (date): DenseEmbedding(
        embedding_dim=1, bias=False, batch_norm=True
        (batch_norm_layer): BatchNorm1d(1, eps=1e-05, momentum=0.1, affine=True, track_running_stats=True)
        (weight): Linear(in_features=1, out_features=1, bias=False)
      )
    )
    (seq_pooling_layer): SeqPoolingLayer(pooling_type=mean, keepdim=False)
  )
  (embedding): Embeddings(
    num_features=8, embed_dim=16, reduction=mean, share_dense_embedding=True
    (embeddings): ModuleDict(
      (user_id): Embedding(277632, 16, padding_idx=0)
      (business_id): Embedding(112395, 16, padding_idx=0)
      (categories): Embedding(103732, 16, padding_idx=0)
      (user_name): Embedding(31148, 16, padding_idx=0)
      (business_name): Embedding(83408, 16, padding_idx=0)
      (state): Embedding(18, 16, padding_idx=0)
      (city): Embedding(1181, 16, padding_idx=0)
      (date): DenseEmbedding(
        embedding_dim=16, bias=False, batch_norm=True
        (batch_norm_layer): BatchNorm1d(1, eps=1e-05, momentum=0.1, affine=True, track_running_stats=True)
        (weight): Linear(in_features=1, out_features=16, bias=False)
      )
    )
    (seq_pooling_layer): SeqPoolingLayer(pooling_type=mean, keepdim=False)
  )
  (fm_layer): FMLayer(reduction=sum)
)
[2023-05-27 19:00:24] INFO GPU id [0] are selected.
[2023-05-27 19:00:24] INFO (recstudio/MainThread) GPU id [0] are selected.
[2023-05-27 19:01:16] INFO Training: Epoch=  0 [logloss=0.3953 auc=0.7866 train_loss_0=0.4116]
[2023-05-27 19:01:16] INFO (recstudio/MainThread) Training: Epoch=  0 [logloss=0.3953 auc=0.7866 train_loss_0=0.4116]
…
