…
[2023-05-27 16:07:06] INFO (recstudio/MainThread) GPU id [0] are selected.
[2023-05-27 16:07:06] WARNING No retriever is used, topk metrics is not supported.
[2023-05-27 16:07:06] WARNING (recstudio/MainThread) No retriever is used, topk metrics is not supported.
[2023-05-27 16:07:07] INFO save_dir:./saved/
[2023-05-27 16:07:07] INFO (recstudio/MainThread) save_dir:./saved/
[2023-05-27 16:07:07] INFO PNN(
  (loss_fn): BCEWithLogitLoss()
  (feature_selection_layer): Lasso()
  (embedding): Embeddings(
    num_features=8, embed_dim=16, reduction=mean, share_dense_embedding=True
    (embeddings): ModuleDict(
      (city): Embedding(1181, 16, padding_idx=0)
      (business_name): Embedding(83408, 16, padding_idx=0)
      (business_id): Embedding(112395, 16, padding_idx=0)
      (postal_code): Embedding(2853, 16, padding_idx=0)
      (categories): Embedding(103732, 16, padding_idx=0)
      (user_id): Embedding(277632, 16, padding_idx=0)
      (review_id): Embedding(4250484, 16, padding_idx=0)
      (user_name): Embedding(31148, 16, padding_idx=0)
    )
    (seq_pooling_layer): SeqPoolingLayer(pooling_type=mean, keepdim=False)
  )
  (mlp): MLPModule(
    (model): Sequential(
      (0): Dropout(p=0, inplace=False)
      (1): Linear(in_features=4, out_features=64, bias=True)
      (2): ReLU()
      (3): Dropout(p=0, inplace=False)
      (4): Linear(in_features=64, out_features=128, bias=True)
      (5): ReLU()
      (6): Dropout(p=0, inplace=False)
      (7): Linear(in_features=128, out_features=256, bias=True)
      (8): ReLU()
      (9): Dropout(p=0, inplace=False)
      (10): Linear(in_features=256, out_features=64, bias=True)
      (11): ReLU()
      (12): Dropout(p=0, inplace=False)
      (13): Linear(in_features=64, out_features=1, bias=True)
    )
  )
)
[2023-05-27 16:07:07] INFO (recstudio/MainThread) PNN(
  (loss_fn): BCEWithLogitLoss()
  (feature_selection_layer): Lasso()
  (embedding): Embeddings(
    num_features=8, embed_dim=16, reduction=mean, share_dense_embedding=True
    (embeddings): ModuleDict(
      (city): Embedding(1181, 16, padding_idx=0)
      (business_name): Embedding(83408, 16, padding_idx=0)
      (business_id): Embedding(112395, 16, padding_idx=0)
      (postal_code): Embedding(2853, 16, padding_idx=0)
      (categories): Embedding(103732, 16, padding_idx=0)
      (user_id): Embedding(277632, 16, padding_idx=0)
      (review_id): Embedding(4250484, 16, padding_idx=0)
      (user_name): Embedding(31148, 16, padding_idx=0)
    )
    (seq_pooling_layer): SeqPoolingLayer(pooling_type=mean, keepdim=False)
  )
  (mlp): MLPModule(
    (model): Sequential(
      (0): Dropout(p=0, inplace=False)
      (1): Linear(in_features=4, out_features=64, bias=True)
      (2): ReLU()
      (3): Dropout(p=0, inplace=False)
      (4): Linear(in_features=64, out_features=128, bias=True)
      (5): ReLU()
      (6): Dropout(p=0, inplace=False)
      (7): Linear(in_features=128, out_features=256, bias=True)
      (8): ReLU()
      (9): Dropout(p=0, inplace=False)
      (10): Linear(in_features=256, out_features=64, bias=True)
      (11): ReLU()
      (12): Dropout(p=0, inplace=False)
      (13): Linear(in_features=64, out_features=1, bias=True)
    )
  )
)
[2023-05-27 16:07:07] INFO GPU id [0] are selected.
[2023-05-27 16:07:07] INFO (recstudio/MainThread) GPU id [0] are selected.
[2023-05-27 16:08:53] INFO Training: Epoch=  0 [logloss=0.3912 auc=0.7949 train_loss_0=0.3991]
[2023-05-27 16:08:53] INFO (recstudio/MainThread) Training: Epoch=  0 [logloss=0.3912 auc=0.7949 train_loss_0=0.3991]
[2023-05-27 16:08:53] INFO Train time: 93.30089s. Valid time: 6.70879s. GPU RAM: 1.76/9.77 GB
…
