…
[2023-05-27 16:28:49] INFO GPU id [0] are selected.
[2023-05-27 16:28:49] INFO (recstudio/MainThread) GPU id [0] are selected.
[2023-05-27 16:28:49] WARNING No retriever is used, topk metrics is not supported.
[2023-05-27 16:28:49] WARNING (recstudio/MainThread) No retriever is used, topk metrics is not supported.
[2023-05-27 16:28:50] INFO save_dir:./saved/
[2023-05-27 16:28:50] INFO (recstudio/MainThread) save_dir:./saved/
[2023-05-27 16:28:50] INFO WideDeep(
  (loss_fn): BCEWithLogitLoss()
  (feature_selection_layer): Lasso()
  (linear): LinearLayer(
    bias=True
    (embeddings): ModuleDict(
      (user_id): Embedding(277632, 1, padding_idx=0)
      (categories): Embedding(103732, 1, padding_idx=0)
      (business_id): Embedding(112395, 1, padding_idx=0)
      (user_name): Embedding(31148, 1, padding_idx=0)
      (city): Embedding(1181, 1, padding_idx=0)
      (business_name): Embedding(83408, 1, padding_idx=0)
      (postal_code): Embedding(2853, 1, padding_idx=0)
      (review_id): Embedding(4250484, 1, padding_idx=0)
    )
    (seq_pooling_layer): SeqPoolingLayer(pooling_type=mean, keepdim=False)
  )
  (embedding): Embeddings(
    num_features=8, embed_dim=16, reduction=mean, share_dense_embedding=True
    (embeddings): ModuleDict(
      (user_id): Embedding(277632, 16, padding_idx=0)
      (categories): Embedding(103732, 16, padding_idx=0)
      (business_id): Embedding(112395, 16, padding_idx=0)
      (user_name): Embedding(31148, 16, padding_idx=0)
      (city): Embedding(1181, 16, padding_idx=0)
      (business_name): Embedding(83408, 16, padding_idx=0)
      (postal_code): Embedding(2853, 16, padding_idx=0)
      (review_id): Embedding(4250484, 16, padding_idx=0)
    )
    (seq_pooling_layer): SeqPoolingLayer(pooling_type=mean, keepdim=False)
  )
  (mlp): MLPModule(
    (model): Sequential(
      (0): Dropout(p=0.1, inplace=False)
      (1): Linear(in_features=128, out_features=128, bias=True)
      (2): Dice(num_parameters=128)
      (3): Dropout(p=0.1, inplace=False)
      (4): Linear(in_features=128, out_features=128, bias=True)
      (5): Dice(num_parameters=128)
      (6): Dropout(p=0.1, inplace=False)
      (7): Linear(in_features=128, out_features=128, bias=True)
      (8): Dice(num_parameters=128)
      (9): Dropout(p=0.1, inplace=False)
      (10): Linear(in_features=128, out_features=1, bias=True)
    )
  )
)
[2023-05-27 16:28:50] INFO (recstudio/MainThread) WideDeep(
  (loss_fn): BCEWithLogitLoss()
  (feature_selection_layer): Lasso()
  (linear): LinearLayer(
    bias=True
    (embeddings): ModuleDict(
      (user_id): Embedding(277632, 1, padding_idx=0)
      (categories): Embedding(103732, 1, padding_idx=0)
      (business_id): Embedding(112395, 1, padding_idx=0)
      (user_name): Embedding(31148, 1, padding_idx=0)
      (city): Embedding(1181, 1, padding_idx=0)
      (business_name): Embedding(83408, 1, padding_idx=0)
      (postal_code): Embedding(2853, 1, padding_idx=0)
      (review_id): Embedding(4250484, 1, padding_idx=0)
    )
    (seq_pooling_layer): SeqPoolingLayer(pooling_type=mean, keepdim=False)
  )
  (embedding): Embeddings(
    num_features=8, embed_dim=16, reduction=mean, share_dense_embedding=True
    (embeddings): ModuleDict(
      (user_id): Embedding(277632, 16, padding_idx=0)
      (categories): Embedding(103732, 16, padding_idx=0)
      (business_id): Embedding(112395, 16, padding_idx=0)
      (user_name): Embedding(31148, 16, padding_idx=0)
      (city): Embedding(1181, 16, padding_idx=0)
      (business_name): Embedding(83408, 16, padding_idx=0)
      (postal_code): Embedding(2853, 16, padding_idx=0)
      (review_id): Embedding(4250484, 16, padding_idx=0)
    )
    (seq_pooling_layer): SeqPoolingLayer(pooling_type=mean, keepdim=False)
  )
  (mlp): MLPModule(
    (model): Sequential(
      (0): Dropout(p=0.1, inplace=False)
      (1): Linear(in_features=128, out_features=128, bias=True)
      (2): Dice(num_parameters=128)
      (3): Dropout(p=0.1, inplace=False)
      (4): Linear(in_features=128, out_features=128, bias=True)
      (5): Dice(num_parameters=128)
      (6): Dropout(p=0.1, inplace=False)
      (7): Linear(in_features=128, out_features=128, bias=True)
      (8): Dice(num_parameters=128)
      (9): Dropout(p=0.1, inplace=False)
      (10): Linear(in_features=128, out_features=1, bias=True)
    )
  )
)
[2023-05-27 16:28:50] INFO GPU id [0] are selected.
[2023-05-27 16:28:50] INFO (recstudio/MainThread) GPU id [0] are selected.
[2023-05-27 16:31:08] INFO Training: Epoch=  0 [logloss=0.3872 auc=0.7973 train_loss_0=0.3973]
[2023-05-27 16:31:08] INFO (recstudio/MainThread) Training: Epoch=  0 [logloss=0.3872 auc=0.7973 train_loss_0=0.3973]
[2023-05-27 16:31:08] INFO Train time: 119.02355s. Valid time: 11.49149s. GPU RAM: 1.83/9.77 GB
…
