…
[2023-05-27 17:03:19] INFO GPU id [0] are selected.
[2023-05-27 17:03:19] INFO (recstudio/MainThread) GPU id [0] are selected.
[2023-05-27 17:03:19] WARNING No retriever is used, topk metrics is not supported.
[2023-05-27 17:03:19] WARNING (recstudio/MainThread) No retriever is used, topk metrics is not supported.
[2023-05-27 17:03:27] INFO save_dir:./saved/
[2023-05-27 17:03:27] INFO (recstudio/MainThread) save_dir:./saved/
[2023-05-27 17:03:27] INFO WideDeep(
  (loss_fn): BCEWithLogitLoss()
  (feature_selection_layer): LPFS()
  (linear): LinearLayer(
    bias=True
    (embeddings): ModuleDict(
      (categories): Embedding(103732, 1, padding_idx=0)
      (review_id): Embedding(4250484, 1, padding_idx=0)
      (user_id): Embedding(277632, 1, padding_idx=0)
      (business_name): Embedding(83408, 1, padding_idx=0)
      (user_name): Embedding(31148, 1, padding_idx=0)
      (postal_code): Embedding(2853, 1, padding_idx=0)
      (state): Embedding(18, 1, padding_idx=0)
      (business_id): Embedding(112395, 1, padding_idx=0)
      (city): Embedding(1181, 1, padding_idx=0)
      (date): DenseEmbedding(
        embedding_dim=1, bias=False, batch_norm=True
        (batch_norm_layer): BatchNorm1d(1, eps=1e-05, momentum=0.1, affine=True, track_running_stats=True)
        (weight): Linear(in_features=1, out_features=1, bias=False)
      )
    )
    (seq_pooling_layer): SeqPoolingLayer(pooling_type=mean, keepdim=False)
  )
  (embedding): Embeddings(
    num_features=10, embed_dim=16, reduction=mean, share_dense_embedding=True
    (embeddings): ModuleDict(
      (categories): Embedding(103732, 16, padding_idx=0)
      (review_id): Embedding(4250484, 16, padding_idx=0)
      (user_id): Embedding(277632, 16, padding_idx=0)
      (business_name): Embedding(83408, 16, padding_idx=0)
      (user_name): Embedding(31148, 16, padding_idx=0)
      (postal_code): Embedding(2853, 16, padding_idx=0)
      (state): Embedding(18, 16, padding_idx=0)
      (business_id): Embedding(112395, 16, padding_idx=0)
      (city): Embedding(1181, 16, padding_idx=0)
      (date): DenseEmbedding(
        embedding_dim=16, bias=False, batch_norm=True
        (batch_norm_layer): BatchNorm1d(1, eps=1e-05, momentum=0.1, affine=True, track_running_stats=True)
        (weight): Linear(in_features=1, out_features=16, bias=False)
      )
    )
    (seq_pooling_layer): SeqPoolingLayer(pooling_type=mean, keepdim=False)
  )
  (mlp): MLPModule(
    (model): Sequential(
      (0): Dropout(p=0.1, inplace=False)
      (1): Linear(in_features=160, out_features=128, bias=True)
      (2): Dice(num_parameters=128)
      (3): Dropout(p=0.1, inplace=False)
      (4): Linear(in_features=128, out_features=128, bias=True)
      (5): Dice(num_parameters=128)
      (6): Dropout(p=0.1, inplace=False)
      (7): Linear(in_features=128, out_features=128, bias=True)
      (8): Dice(num_parameters=128)
      (9): Dropout(p=0.1, inplace=False)
      (10): Linear(in_features=128, out_features=1, bias=True)
    )
  )
)
[2023-05-27 17:03:27] INFO (recstudio/MainThread) WideDeep(
  (loss_fn): BCEWithLogitLoss()
  (feature_selection_layer): LPFS()
  (linear): LinearLayer(
    bias=True
    (embeddings): ModuleDict(
      (categories): Embedding(103732, 1, padding_idx=0)
      (review_id): Embedding(4250484, 1, padding_idx=0)
      (user_id): Embedding(277632, 1, padding_idx=0)
      (business_name): Embedding(83408, 1, padding_idx=0)
      (user_name): Embedding(31148, 1, padding_idx=0)
      (postal_code): Embedding(2853, 1, padding_idx=0)
      (state): Embedding(18, 1, padding_idx=0)
      (business_id): Embedding(112395, 1, padding_idx=0)
      (city): Embedding(1181, 1, padding_idx=0)
      (date): DenseEmbedding(
        embedding_dim=1, bias=False, batch_norm=True
        (batch_norm_layer): BatchNorm1d(1, eps=1e-05, momentum=0.1, affine=True, track_running_stats=True)
        (weight): Linear(in_features=1, out_features=1, bias=False)
      )
    )
    (seq_pooling_layer): SeqPoolingLayer(pooling_type=mean, keepdim=False)
  )
  (embedding): Embeddings(
    num_features=10, embed_dim=16, reduction=mean, share_dense_embedding=True
    (embeddings): ModuleDict(
      (categories): Embedding(103732, 16, padding_idx=0)
      (review_id): Embedding(4250484, 16, padding_idx=0)
      (user_id): Embedding(277632, 16, padding_idx=0)
      (business_name): Embedding(83408, 16, padding_idx=0)
      (user_name): Embedding(31148, 16, padding_idx=0)
      (postal_code): Embedding(2853, 16, padding_idx=0)
      (state): Embedding(18, 16, padding_idx=0)
      (business_id): Embedding(112395, 16, padding_idx=0)
      (city): Embedding(1181, 16, padding_idx=0)
      (date): DenseEmbedding(
        embedding_dim=16, bias=False, batch_norm=True
        (batch_norm_layer): BatchNorm1d(1, eps=1e-05, momentum=0.1, affine=True, track_running_stats=True)
        (weight): Linear(in_features=1, out_features=16, bias=False)
      )
    )
    (seq_pooling_layer): SeqPoolingLayer(pooling_type=mean, keepdim=False)
  )
  (mlp): MLPModule(
    (model): Sequential(
      (0): Dropout(p=0.1, inplace=False)
      (1): Linear(in_features=160, out_features=128, bias=True)
      (2): Dice(num_parameters=128)
      (3): Dropout(p=0.1, inplace=False)
      (4): Linear(in_features=128, out_features=128, bias=True)
      (5): Dice(num_parameters=128)
      (6): Dropout(p=0.1, inplace=False)
      (7): Linear(in_features=128, out_features=128, bias=True)
      (8): Dice(num_parameters=128)
      (9): Dropout(p=0.1, inplace=False)
      (10): Linear(in_features=128, out_features=1, bias=True)
    )
  )
)
[2023-05-27 17:03:27] INFO GPU id [0] are selected.
[2023-05-27 17:03:27] INFO (recstudio/MainThread) GPU id [0] are selected.
[2023-05-27 17:05:30] INFO Training: Epoch=  0 [logloss=0.3930 auc=0.7894 train_loss_0=0.4154]
[2023-05-27 17:05:30] INFO (recstudio/MainThread) Training: Epoch=  0 [logloss=0.3930 auc=0.7894 train_loss_0=0.4154]
[2023-05-27 17:05:30] INFO Train time: 110.05469s. Valid time: 12.98034s. GPU RAM: 1.23/9.77 GB
…
