…
[2023-05-27 16:34:16] INFO GPU id [0] are selected.
[2023-05-27 16:34:16] INFO (recstudio/MainThread) GPU id [0] are selected.
[2023-05-27 16:34:16] WARNING No retriever is used, topk metrics is not supported.
[2023-05-27 16:34:16] WARNING (recstudio/MainThread) No retriever is used, topk metrics is not supported.
[2023-05-27 16:34:18] INFO save_dir:./saved/
[2023-05-27 16:34:18] INFO (recstudio/MainThread) save_dir:./saved/
[2023-05-27 16:34:18] INFO xDeepFM(
  (loss_fn): BCEWithLogitLoss()
  (feature_selection_layer): Lasso()
  (linear): LinearLayer(
    bias=True
    (embeddings): ModuleDict(
      (business_id): Embedding(112395, 1, padding_idx=0)
      (city): Embedding(1181, 1, padding_idx=0)
      (review_id): Embedding(4250484, 1, padding_idx=0)
      (categories): Embedding(103732, 1, padding_idx=0)
      (user_name): Embedding(31148, 1, padding_idx=0)
      (business_name): Embedding(83408, 1, padding_idx=0)
      (user_id): Embedding(277632, 1, padding_idx=0)
      (postal_code): Embedding(2853, 1, padding_idx=0)
    )
    (seq_pooling_layer): SeqPoolingLayer(pooling_type=mean, keepdim=False)
  )
  (fm): FMLayer(reduction=sum)
  (embedding): Embeddings(
    num_features=8, embed_dim=16, reduction=mean, share_dense_embedding=True
    (embeddings): ModuleDict(
      (business_id): Embedding(112395, 16, padding_idx=0)
      (city): Embedding(1181, 16, padding_idx=0)
      (review_id): Embedding(4250484, 16, padding_idx=0)
      (categories): Embedding(103732, 16, padding_idx=0)
      (user_name): Embedding(31148, 16, padding_idx=0)
      (business_name): Embedding(83408, 16, padding_idx=0)
      (user_id): Embedding(277632, 16, padding_idx=0)
      (postal_code): Embedding(2853, 16, padding_idx=0)
    )
    (seq_pooling_layer): SeqPoolingLayer(pooling_type=mean, keepdim=False)
  )
  (cin): CIN(
    (activation): GELU()
    (weight): ModuleList()
    (weight_list): ModuleList(
      (0): Conv1d(64, 200, kernel_size=(1,), stride=(1,))
      (1): Conv1d(800, 200, kernel_size=(1,), stride=(1,))
      (2): Conv1d(800, 200, kernel_size=(1,), stride=(1,))
    )
    (linear): Linear(in_features=400, out_features=1, bias=True)
  )
  (mlp): MLPModule(
    (model): Sequential(
      (0): Dropout(p=0.3, inplace=False)
      (1): Linear(in_features=128, out_features=64, bias=True)
      (2): GELU()
      (3): Dropout(p=0.3, inplace=False)
      (4): Linear(in_features=64, out_features=64, bias=True)
      (5): GELU()
      (6): Dropout(p=0.3, inplace=False)
      (7): Linear(in_features=64, out_features=64, bias=True)
      (8): GELU()
      (9): Dropout(p=0.3, inplace=False)
      (10): Linear(in_features=64, out_features=1, bias=True)
    )
  )
)
[2023-05-27 16:34:18] INFO (recstudio/MainThread) xDeepFM(
  (loss_fn): BCEWithLogitLoss()
  (feature_selection_layer): Lasso()
  (linear): LinearLayer(
    bias=True
    (embeddings): ModuleDict(
      (business_id): Embedding(112395, 1, padding_idx=0)
      (city): Embedding(1181, 1, padding_idx=0)
      (review_id): Embedding(4250484, 1, padding_idx=0)
      (categories): Embedding(103732, 1, padding_idx=0)
      (user_name): Embedding(31148, 1, padding_idx=0)
      (business_name): Embedding(83408, 1, padding_idx=0)
      (user_id): Embedding(277632, 1, padding_idx=0)
      (postal_code): Embedding(2853, 1, padding_idx=0)
    )
    (seq_pooling_layer): SeqPoolingLayer(pooling_type=mean, keepdim=False)
  )
  (fm): FMLayer(reduction=sum)
  (embedding): Embeddings(
    num_features=8, embed_dim=16, reduction=mean, share_dense_embedding=True
    (embeddings): ModuleDict(
      (business_id): Embedding(112395, 16, padding_idx=0)
      (city): Embedding(1181, 16, padding_idx=0)
      (review_id): Embedding(4250484, 16, padding_idx=0)
      (categories): Embedding(103732, 16, padding_idx=0)
      (user_name): Embedding(31148, 16, padding_idx=0)
      (business_name): Embedding(83408, 16, padding_idx=0)
      (user_id): Embedding(277632, 16, padding_idx=0)
      (postal_code): Embedding(2853, 16, padding_idx=0)
    )
    (seq_pooling_layer): SeqPoolingLayer(pooling_type=mean, keepdim=False)
  )
  (cin): CIN(
    (activation): GELU()
    (weight): ModuleList()
    (weight_list): ModuleList(
      (0): Conv1d(64, 200, kernel_size=(1,), stride=(1,))
      (1): Conv1d(800, 200, kernel_size=(1,), stride=(1,))
      (2): Conv1d(800, 200, kernel_size=(1,), stride=(1,))
    )
    (linear): Linear(in_features=400, out_features=1, bias=True)
  )
  (mlp): MLPModule(
    (model): Sequential(
      (0): Dropout(p=0.3, inplace=False)
      (1): Linear(in_features=128, out_features=64, bias=True)
      (2): GELU()
      (3): Dropout(p=0.3, inplace=False)
      (4): Linear(in_features=64, out_features=64, bias=True)
      (5): GELU()
      (6): Dropout(p=0.3, inplace=False)
      (7): Linear(in_features=64, out_features=64, bias=True)
      (8): GELU()
      (9): Dropout(p=0.3, inplace=False)
      (10): Linear(in_features=64, out_features=1, bias=True)
    )
  )
)
[2023-05-27 16:34:18] INFO GPU id [0] are selected.
[2023-05-27 16:34:18] INFO (recstudio/MainThread) GPU id [0] are selected.
[2023-05-27 16:36:49] INFO Training: Epoch=  0 [logloss=0.3866 auc=0.7980 train_loss_0=0.3963]
[2023-05-27 16:36:49] INFO (recstudio/MainThread) Training: Epoch=  0 [logloss=0.3866 auc=0.7980 train_loss_0=0.3963]
[2023-05-27 16:36:49] INFO Train time: 131.96241s. Valid time: 11.95469s. GPU RAM: 1.82/9.77 GB
…
