…
	scheduler=None
	seed=None
	weight_decay=0.0
	tensorboard_path=None
[2023-05-27 15:56:44] INFO GPU id [0] are selected.
[2023-05-27 15:56:44] INFO (recstudio/MainThread) GPU id [0] are selected.
[2023-05-27 15:56:44] WARNING No retriever is used, topk metrics is not supported.
[2023-05-27 15:56:44] WARNING (recstudio/MainThread) No retriever is used, topk metrics is not supported.
[2023-05-27 15:56:46] INFO save_dir:./saved/
[2023-05-27 15:56:46] INFO (recstudio/MainThread) save_dir:./saved/
[2023-05-27 15:56:46] INFO xDeepFM(
  (loss_fn): BCEWithLogitLoss()
  (feature_selection_layer): AdaFS(
    (batchnorm): BatchNorm1d(10, eps=1e-05, momentum=0.1, affine=True, track_running_stats=True)
    (mlp): MLP(
      (mlp): Sequential(
        (0): Linear(in_features=160, out_features=10, bias=True)
        (1): BatchNorm1d(10, eps=1e-05, momentum=0.1, affine=True, track_running_stats=True)
        (2): ReLU()
        (3): Dropout(p=0, inplace=False)
      )
    )
  )
  (linear): LinearLayer(
    bias=True
    (embeddings): ModuleDict(
      (state): Embedding(18, 1, padding_idx=0)
      (postal_code): Embedding(2853, 1, padding_idx=0)
      (business_id): Embedding(112395, 1, padding_idx=0)
      (city): Embedding(1181, 1, padding_idx=0)
      (review_id): Embedding(4250484, 1, padding_idx=0)
      (user_name): Embedding(31148, 1, padding_idx=0)
      (user_id): Embedding(277632, 1, padding_idx=0)
      (categories): Embedding(103732, 1, padding_idx=0)
      (business_name): Embedding(83408, 1, padding_idx=0)
      (date): DenseEmbedding(
        embedding_dim=1, bias=False, batch_norm=True
        (batch_norm_layer): BatchNorm1d(1, eps=1e-05, momentum=0.1, affine=True, track_running_stats=True)
        (weight): Linear(in_features=1, out_features=1, bias=False)
      )
    )
    (seq_pooling_layer): SeqPoolingLayer(pooling_type=mean, keepdim=False)
  )
  (fm): FMLayer(reduction=sum)
  (embedding): Embeddings(
    num_features=10, embed_dim=16, reduction=mean, share_dense_embedding=True
    (embeddings): ModuleDict(
      (state): Embedding(18, 16, padding_idx=0)
      (postal_code): Embedding(2853, 16, padding_idx=0)
      (business_id): Embedding(112395, 16, padding_idx=0)
      (city): Embedding(1181, 16, padding_idx=0)
      (review_id): Embedding(4250484, 16, padding_idx=0)
      (user_name): Embedding(31148, 16, padding_idx=0)
      (user_id): Embedding(277632, 16, padding_idx=0)
      (categories): Embedding(103732, 16, padding_idx=0)
      (business_name): Embedding(83408, 16, padding_idx=0)
      (date): DenseEmbedding(
        embedding_dim=16, bias=False, batch_norm=True
        (batch_norm_layer): BatchNorm1d(1, eps=1e-05, momentum=0.1, affine=True, track_running_stats=True)
        (weight): Linear(in_features=1, out_features=16, bias=False)
      )
    )
    (seq_pooling_layer): SeqPoolingLayer(pooling_type=mean, keepdim=False)
  )
  (cin): CIN(
    (activation): GELU()
    (weight): ModuleList()
    (weight_list): ModuleList(
      (0): Conv1d(100, 200, kernel_size=(1,), stride=(1,))
      (1): Conv1d(1000, 200, kernel_size=(1,), stride=(1,))
      (2): Conv1d(1000, 200, kernel_size=(1,), stride=(1,))
    )
    (linear): Linear(in_features=400, out_features=1, bias=True)
  )
  (mlp): MLPModule(
    (model): Sequential(
      (0): Dropout(p=0.3, inplace=False)
      (1): Linear(in_features=160, out_features=64, bias=True)
      (2): GELU()
      (3): Dropout(p=0.3, inplace=False)
      (4): Linear(in_features=64, out_features=64, bias=True)
      (5): GELU()
      (6): Dropout(p=0.3, inplace=False)
      (7): Linear(in_features=64, out_features=64, bias=True)
      (8): GELU()
      (9): Dropout(p=0.3, inplace=False)
      (10): Linear(in_features=64, out_features=1, bias=True)
    )
  )
)
[2023-05-27 15:56:46] INFO (recstudio/MainThread) xDeepFM(
  (loss_fn): BCEWithLogitLoss()
  (feature_selection_layer): AdaFS(
    (batchnorm): BatchNorm1d(10, eps=1e-05, momentum=0.1, affine=True, track_running_stats=True)
    (mlp): MLP(
      (mlp): Sequential(
        (0): Linear(in_features=160, out_features=10, bias=True)
        (1): BatchNorm1d(10, eps=1e-05, momentum=0.1, affine=True, track_running_stats=True)
        (2): ReLU()
        (3): Dropout(p=0, inplace=False)
      )
    )
  )
  (linear): LinearLayer(
    bias=True
    (embeddings): ModuleDict(
      (state): Embedding(18, 1, padding_idx=0)
      (postal_code): Embedding(2853, 1, padding_idx=0)
      (business_id): Embedding(112395, 1, padding_idx=0)
      (city): Embedding(1181, 1, padding_idx=0)
      (review_id): Embedding(4250484, 1, padding_idx=0)
      (user_name): Embedding(31148, 1, padding_idx=0)
      (user_id): Embedding(277632, 1, padding_idx=0)
      (categories): Embedding(103732, 1, padding_idx=0)
      (business_name): Embedding(83408, 1, padding_idx=0)
      (date): DenseEmbedding(
        embedding_dim=1, bias=False, batch_norm=True
        (batch_norm_layer): BatchNorm1d(1, eps=1e-05, momentum=0.1, affine=True, track_running_stats=True)
        (weight): Linear(in_features=1, out_features=1, bias=False)
      )
    )
    (seq_pooling_layer): SeqPoolingLayer(pooling_type=mean, keepdim=False)
  )
  (fm): FMLayer(reduction=sum)
  (embedding): Embeddings(
    num_features=10, embed_dim=16, reduction=mean, share_dense_embedding=True
    (embeddings): ModuleDict(
      (state): Embedding(18, 16, padding_idx=0)
      (postal_code): Embedding(2853, 16, padding_idx=0)
      (business_id): Embedding(112395, 16, padding_idx=0)
      (city): Embedding(1181, 16, padding_idx=0)
      (review_id): Embedding(4250484, 16, padding_idx=0)
      (user_name): Embedding(31148, 16, padding_idx=0)
      (user_id): Embedding(277632, 16, padding_idx=0)
      (categories): Embedding(103732, 16, padding_idx=0)
      (business_name): Embedding(83408, 16, padding_idx=0)
      (date): DenseEmbedding(
        embedding_dim=16, bias=False, batch_norm=True
        (batch_norm_layer): BatchNorm1d(1, eps=1e-05, momentum=0.1, affine=True, track_running_stats=True)
        (weight): Linear(in_features=1, out_features=16, bias=False)
      )
    )
    (seq_pooling_layer): SeqPoolingLayer(pooling_type=mean, keepdim=False)
  )
  (cin): CIN(
    (activation): GELU()
    (weight): ModuleList()
    (weight_list): ModuleList(
      (0): Conv1d(100, 200, kernel_size=(1,), stride=(1,))
      (1): Conv1d(1000, 200, kernel_size=(1,), stride=(1,))
      (2): Conv1d(1000, 200, kernel_size=(1,), stride=(1,))
    )
    (linear): Linear(in_features=400, out_features=1, bias=True)
  )
  (mlp): MLPModule(
    (model): Sequential(
      (0): Dropout(p=0.3, inplace=False)
      (1): Linear(in_features=160, out_features=64, bias=True)
      (2): GELU()
      (3): Dropout(p=0.3, inplace=False)
      (4): Linear(in_features=64, out_features=64, bias=True)
      (5): GELU()
      (6): Dropout(p=0.3, inplace=False)
      (7): Linear(in_features=64, out_features=64, bias=True)
      (8): GELU()
      (9): Dropout(p=0.3, inplace=False)
      (10): Linear(in_features=64, out_features=1, bias=True)
    )
  )
)
[2023-05-27 15:56:46] INFO GPU id [0] are selected.
[2023-05-27 15:56:46] INFO (recstudio/MainThread) GPU id [0] are selected.
[2023-05-27 15:59:23] INFO Training: Epoch=  0 [logloss=0.3843 auc=0.8018 train_loss_0=0.3947]
[2023-05-27 15:59:23] INFO (recstudio/MainThread) Training: Epoch=  0 [logloss=0.3843 auc=0.8018 train_loss_0=0.3947]
[2023-05-27 15:59:23] INFO Train time: 138.82902s. Valid time: 11.97776s. GPU RAM: 1.80/9.77 GB
…
