…
        (city): Parameter containing: [torch.cuda.FloatTensor of size 1181x1 (GPU 0)]
        (postal_code): Parameter containing: [torch.cuda.FloatTensor of size 2853x1 (GPU 0)]
        (review_id): Parameter containing: [torch.cuda.FloatTensor of size 4250484x1 (GPU 0)]
        (state): Parameter containing: [torch.cuda.FloatTensor of size 18x1 (GPU 0)]
        (user_id): Parameter containing: [torch.cuda.FloatTensor of size 277632x1 (GPU 0)]
        (user_name): Parameter containing: [torch.cuda.FloatTensor of size 31148x1 (GPU 0)]
    )
  )
  (linear): LinearLayer(
    bias=True
    (embeddings): ModuleDict(
      (categories): Embedding(103732, 1, padding_idx=0)
      (postal_code): Embedding(2853, 1, padding_idx=0)
      (business_name): Embedding(83408, 1, padding_idx=0)
      (review_id): Embedding(4250484, 1, padding_idx=0)
      (business_id): Embedding(112395, 1, padding_idx=0)
      (user_name): Embedding(31148, 1, padding_idx=0)
      (state): Embedding(18, 1, padding_idx=0)
      (user_id): Embedding(277632, 1, padding_idx=0)
      (city): Embedding(1181, 1, padding_idx=0)
      (date): DenseEmbedding(
        embedding_dim=1, bias=False, batch_norm=True
        (batch_norm_layer): BatchNorm1d(1, eps=1e-05, momentum=0.1, affine=True, track_running_stats=True)
        (weight): Linear(in_features=1, out_features=1, bias=False)
      )
    )
    (seq_pooling_layer): SeqPoolingLayer(pooling_type=mean, keepdim=False)
  )
  (fm): FMLayer(reduction=sum)
  (embedding): Embeddings(
    num_features=10, embed_dim=16, reduction=mean, share_dense_embedding=True
    (embeddings): ModuleDict(
      (categories): Embedding(103732, 16, padding_idx=0)
      (postal_code): Embedding(2853, 16, padding_idx=0)
      (business_name): Embedding(83408, 16, padding_idx=0)
      (review_id): Embedding(4250484, 16, padding_idx=0)
      (business_id): Embedding(112395, 16, padding_idx=0)
      (user_name): Embedding(31148, 16, padding_idx=0)
      (state): Embedding(18, 16, padding_idx=0)
      (user_id): Embedding(277632, 16, padding_idx=0)
      (city): Embedding(1181, 16, padding_idx=0)
      (date): DenseEmbedding(
        embedding_dim=16, bias=False, batch_norm=True
        (batch_norm_layer): BatchNorm1d(1, eps=1e-05, momentum=0.1, affine=True, track_running_stats=True)
        (weight): Linear(in_features=1, out_features=16, bias=False)
      )
    )
    (seq_pooling_layer): SeqPoolingLayer(pooling_type=mean, keepdim=False)
  )
  (mlp): MLPModule(
    (model): Sequential(
      (0): Dropout(p=0.2, inplace=False)
      (1): Linear(in_features=160, out_features=64, bias=True)
      (2): ReLU()
      (3): Dropout(p=0.2, inplace=False)
      (4): Linear(in_features=64, out_features=64, bias=True)
      (5): ReLU()
      (6): Dropout(p=0.2, inplace=False)
      (7): Linear(in_features=64, out_features=64, bias=True)
      (8): ReLU()
      (9): Dropout(p=0.2, inplace=False)
      (10): Linear(in_features=64, out_features=1, bias=True)
    )
  )
)
[2023-05-30 16:04:50] INFO GPU id [0] are selected.
[2023-05-30 16:06:23] INFO Training: Epoch=  0 [logloss=0.4352 auc=0.7436 train_loss_0=0.4615]
[2023-05-30 16:06:23] INFO Train time: 75.67326s. Valid time: 17.70103s. GPU RAM: 0.63/9.77 GB
[2023-05-30 16:06:23] INFO auc improved. Best value: 0.7436
[2023-05-30 16:06:24] INFO Best model checkpoint saved in ./saved/DeepFM/yelp/2023-05-30-16-04-17-502098.ckpt.
…
