…
        (postal_code): Parameter containing: [torch.cuda.FloatTensor of size 2853x1 (GPU 0)]
        (review_id): Parameter containing: [torch.cuda.FloatTensor of size 4250484x1 (GPU 0)]
        (state): Parameter containing: [torch.cuda.FloatTensor of size 18x1 (GPU 0)]
        (user_id): Parameter containing: [torch.cuda.FloatTensor of size 277632x1 (GPU 0)]
        (user_name): Parameter containing: [torch.cuda.FloatTensor of size 31148x1 (GPU 0)]
    )
  )
  (embedding): Embeddings(
    num_features=10, embed_dim=16, reduction=mean, share_dense_embedding=True
    (embeddings): ModuleDict(
      (user_id): Embedding(277632, 16, padding_idx=0)
      (business_name): Embedding(83408, 16, padding_idx=0)
      (review_id): Embedding(4250484, 16, padding_idx=0)
      (user_name): Embedding(31148, 16, padding_idx=0)
      (postal_code): Embedding(2853, 16, padding_idx=0)
      (business_id): Embedding(112395, 16, padding_idx=0)
      (state): Embedding(18, 16, padding_idx=0)
      (city): Embedding(1181, 16, padding_idx=0)
      (categories): Embedding(103732, 16, padding_idx=0)
      (date): DenseEmbedding(
        embedding_dim=16, bias=False, batch_norm=True
        (batch_norm_layer): BatchNorm1d(1, eps=1e-05, momentum=0.1, affine=True, track_running_stats=True)
        (weight): Linear(in_features=1, out_features=16, bias=False)
      )
    )
    (seq_pooling_layer): SeqPoolingLayer(pooling_type=mean, keepdim=False)
  )
  (cross_net): CrossNetwork(
    embed_dim=160, num_layers=6
    (cross): ModuleList(
      (0): CrossInteraction()
      (1): CrossInteraction()
      (2): CrossInteraction()
      (3): CrossInteraction()
      (4): CrossInteraction()
      (5): CrossInteraction()
    )
  )
  (mlp): MLPModule(
    (model): Sequential(
      (0): Dropout(p=0.2, inplace=False)
      (1): Linear(in_features=160, out_features=128, bias=True)
      (2): BatchNorm1d(128, eps=1e-05, momentum=0.1, affine=True, track_running_stats=True)
      (3): ReLU()
      (4): Dropout(p=0.2, inplace=False)
      (5): Linear(in_features=128, out_features=128, bias=True)
      (6): BatchNorm1d(128, eps=1e-05, momentum=0.1, affine=True, track_running_stats=True)
      (7): ReLU()
      (8): Dropout(p=0.2, inplace=False)
      (9): Linear(in_features=128, out_features=128, bias=True)
      (10): BatchNorm1d(128, eps=1e-05, momentum=0.1, affine=True, track_running_stats=True)
      (11): ReLU()
    )
  )
  (fc): Linear(in_features=288, out_features=1, bias=True)
)
[2023-05-30 13:59:45] INFO GPU id [0] are selected.
[2023-05-30 15:10:07] INFO Training: Epoch=  0 [logloss=0.3944 auc=0.7918 train_loss_0=0.4032]
[2023-05-30 15:10:07] INFO Train time: 3928.48211s. Valid time: 293.25559s. GPU RAM: 2.15/9.77 GB
[2023-05-30 15:10:07] INFO auc improved. Best value: 0.7918
[2023-05-30 15:10:08] INFO Best model checkpoint saved in ./saved/DCN/yelp/2023-05-30-13-59-11-873186.ckpt.
…
